PolicySeries/PPO_model.pth (torch, 16667 bytes, 11 tensors)

weight f4 [32, 4]
000000 45 a9 9d bc 48 c6 78 3e 8a 52 0e bf 3e a7 f5 be
       -0.019245753 0.24294388 -0.55594695 -0.47979158
000010 12 13 09 be e6 8f 2c 3e 82 e7 47 3d c8 4d e6 3e
       -0.13386181 0.16851768 0.048804767 0.44981217
000020 d6 a0 1c bd 27 15 09 3e 75 a8 9d be 98 ce 69 be
       -0.038239323 0.13386975 -0.30792585 -0.22832716
000030 0b 89 ee be 17 75 b4 be c0 fd d7 bd 55 4f c7 3d
       -0.4658893 -0.35245582 -0.10546446 0.09731928
000040 ca 9c 31 3e 67 20 94 3e e9 8d eb be 19 5a 9c be
       0.17344967 0.2893097 -0.46006706 -0.3053749
000050 fd 82 28 3e 9a 5b c3 3e 78 24 de 3c 3e 84 01 3f
       0.16456218 0.38155824 0.027116999 0.5059241
000060 79 a1 10 be 55 9a 3a 3c 1e 62 df 3e 77 48 f1 be
       -0.14124097 0.011389335 0.43629545 -0.471256
000070 bc b2 95 be 85 42 c5 bd 8f d5 18 bd 3c 95 11 3f
       -0.29237926 -0.09631828 -0.03731304 0.5686834
000080 24 72 9c be 73 43 46 be 70 1b ee be a5 80 1f bf
       -0.30555832 -0.19361667 -0.46505308 -0.6230567
000090 14 ee 84 be 38 73 e7 3e bc aa 4f 3e 95 33 65 3e
       -0.2596289 0.45205092 0.20279974 0.22382958
0000a0 77 a5 12 3d e9 87 7b be 4f b8 35 bd c9 c6 21 bf
       0.03580233 -0.24563564 -0.044365223 -0.6319395
0000b0 eb be a7 be 74 c2 79 be f5 d6 e2 3e a6 d7 c7 3e
       -0.32762846 -0.24390584 0.44304624 0.39031714
0000c0 86 91 52 be 6c 66 aa bb 57 2e ec 3e 4e e1 1a 3f
       -0.20563325 -0.005200198 0.46129104 0.6050004
0000d0 1a e7 0f 3e db 16 7e 3c 3a 55 7b 3e ea 3a c2 be
       0.14053002 0.015508379 0.2454423 -0.37935573
0000e0 28 96 ac 3d f0 7d d0 be 8b 11 8f be 20 c5 5c be
       0.084270775 -0.40721083 -0.27943072 -0.21559572
0000f0 f4 a5 6c 3e 1e 9e 52 3e 1f 4b d3 be d4 ff 51 3d
       0.23110181 0.2056813 -0.4126825 0.051269367
000100 af f3 a2 3e a5 f1 23 bd f9 91 11 3c 36 6c da 3d
       0.3182654 -0.040025372 0.0088849 0.10665171
000110 94 a9 8f 3e 51 e7 f3 3e 5a 58 fb be 4a d7 85 be
       0.28059065 0.47637418 -0.49090844 -0.26140815
000120 0d 63 28 3e b5 00 bd 3e 05 76 0b 3f 8c 4f 06 3f
       0.16444035 0.36914602 0.5447696 0.5246513
000130 f8 b8 f1 3d d9 bb d0 be 1f 9f b1 bd 0f 08 dc be
       0.11802858 -0.40768316 -0.08672928 -0.42974898
000140 be 45 ea be 8b 3e df 3e 7b 47 78 3e bc 6c 1c bf
       -0.45756334 0.43602404 0.24246018 -0.61103415
000150 42 bc dd 3d 64 c1 7d bd b4 67 54 be cc 19 a2 be
       0.10826923 -0.06195201 -0.20742685 -0.31660306
000160 bd 5e 62 3e 16 80 80 be 7f 15 9b 3e 4d 7c c8 3e
       0.22106452 -0.25097722 0.30289838 0.39157334
000170 10 78 a3 3e 6e 54 2e 3e 90 59 1c bf 54 79 ce be
       0.31927538 0.17024395 -0.6107416 -0.4032694
000180 f1 6b 60 3e fa b8 83 3d 45 b2 09 bf e9 f0 e0 be
       0.21916176 0.06431766 -0.5378764 -0.439338
000190 04 90 dd 3e fa a7 9f 3e 8b 83 b2 be aa 2f 67 be
       0.43273938 0.31182843 -0.34865984 -0.22576776
0001a0 e1 2b f7 be 9d 14 94 bb 5a 9b 03 bf a7 0a 05 bf
       -0.48275664 -0.004519059 -0.5140892 -0.5196938
0001b0 c5 a1 5c 3d 88 4c 05 3e 79 05 26 be d8 ff a3 3e
       0.053865213 0.13017476 -0.16213025 0.3203113
0001c0 59 6f b7 be 92 34 d1 3e 1b 5e b4 3e 98 d0 d2 be
       -0.3582714 0.4086042 0.35228047 -0.4117477
0001d0 9a fd 7e bd 3d ec 81 3d 74 ee b3 3d 09 1b ea 3d
       -0.062253572 0.06343887 0.08785716 0.11430938
0001e0 0f a9 56 3e 31 df 3e 3d 77 ea d3 bd 01 52 c3 3e
       0.20962928 0.04659957 -0.10347455 0.38148502
0001f0 08 a9 f2 be 4e ad 88 be a5 4d 68 be 4d c5 a2 be
       -0.47394586 -0.2669472 -0.22685869 -0.31791154

bias f4 [32]
000000 f4 44 15 be 0d 74 d1 be 92 bf 94 bd 69 f2 90 3d
       -0.14577085 -0.40908852 -0.07263102 0.07077486
000010 3b 88 95 be c7 90 93 bd d6 de b7 3e 13 75 bf bd
       -0.29205498 -0.072053485 0.35912198 -0.09348502
000020 fe 4a 9f 3d 13 ee 0f bd d0 28 27 3e 88 c4 8d 3e
       0.077779755 -0.035139155 0.16324162 0.27689004
000030 18 b5 d8 3e 0c ea af 3e f6 56 ee 3e 04 81 fe 3c
       0.42325664 0.3435825 0.4655072 0.031067379
000040 e5 78 e3 be 4d 8e 52 be af 64 a1 3e 83 d2 9c 3c
       -0.44428173 -0.20562096 0.31522128 0.019143349
000050 49 98 58 be 3c f2 b6 be 68 ad f9 be 74 a1 c6 be
       -0.21151842 -0.35731685 -0.4876511 -0.38795054
000060 4a 4c 41 bd 4e 69 99 3e 38 14 90 3e 80 c9 f8 be
       -0.047191896 0.29963154 0.28140426 -0.48591232
000070 fb b6 a1 3e b8 a0 c4 be 9d 42 0d be 5a ea 39 be
       0.31584916 -0.3840387 -0.13794942 -0.18155804

weight f4 [32, 32]
000000 0e 37 2b be 3a 92 33 3b cc 25 8e be 56 98 0b be
       -0.1672022 0.002740039 -0.27763212 -0.1363233
000010 cd ce a8 bd e6 f1 da 3d 72 79 f0 bd c9 d8 0e 3e
       -0.08242569 0.1069067 -0.11741914 0.13949884
000020 82 8a 87 be 64 15 76 3d 02 c0 84 3d 89 97 46 bc
       -0.2647286 0.060078993 0.06481935 -0.01212109
000030 31 3b 74 3e c6 a1 12 3d 22 78 3f be 1e 9f af 3d
       0.23850705 0.03579881 -0.18698171 0.08575271
000040 98 7d 39 bb 4a 85 07 be 9a 90 51 3e 0b f7 89 be
       -0.002830362 -0.1323444 0.20465317 -0.2694629
000050 cf 7d c3 bd da f1 a0 bd ad 27 21 3e e1 5d ec bb
       -0.095454805 -0.078586295 0.15737791 -0.0072133397
000060 66 a8 18 bd a7 45 17 3d 11 17 ea bd 82 0c 73 bc
       -0.037269972 0.03693166 -0.11430181 -0.014834525
000070 3d e9 37 be f6 fd df 3d f5 41 5b 3e a0 a4 96 3d
       -0.17960067 0.10937111 0.2141188 0.073556185
000080 14 2c 3e bd 77 54 c7 bc f7 9d 59 bd 30 3d e4 bd
       -0.046428755 -0.024332268 -0.053129163 -0.11144483
000090 0c 2e 8f bd 37 44 2a bd 43 0a 9a bd bc df 54 bd
       -0.069912046 -0.04156896 -0.075214885 -0.051971182
0000a0 6d 52 c0 3d 18 6c 1f 3d 8d 30 82 bd 1f 53 23 be
       0.093907215 0.038921446 -0.063569166 -0.15949677
0000b0 27 73 1b be 1e f8 17 3e b0 23 0f bd 80 0a 2d 3e
       -0.15180646 0.14840743 -0.034946144 0.16898537
0000c0 a0 75 31 3d 83 d1 77 3d 74 0f 5e bd 59 09 b9 3d
       0.043325067 0.06050254 -0.054213956 0.09034986
0000d0 59 65 b7 3d 58 32 8f bc 4d 42 e0 bc 4c 4b 62 3d
       0.089548774 -0.01748006 -0.027375365 0.05524759
0000e0 ad bd 85 bd b6 da 99 bd 73 6f 49 3e 1b 43 2b be
       -0.065303184 -0.07512419 0.19671421 -0.16724817
0000f0 8e c1 3b 3c 48 a3 20 3e c4 f9 ae 3b fa 6a 41 3d
       0.011459721 0.15687287 0.005339833 0.04722116
000100 ee 5c 83 be ce f8 00 3e 20 a7 62 be 2b 01 12 bd
       -0.25656837 0.12594911 -0.22134066 -0.035645645
000110 70 9c d0 bd 6f 69 a1 3d 86 ef 06 bd bf 32 55 3e
       -0.10186088 0.07881438 -0.03294327 0.2082014
000120 05 1b 99 bd f4 d1 72 3e 40 6e cc 3c c2 27 82 bd
       -0.07475857 0.23712903 0.024954915 -0.063552395
000130 da 0f 15 3e 8a 1b 1e be 6e bd da bd a8 76 ee 3c
       0.14556828 -0.15440193 -0.10680662 0.029109314
000140 98 01 a2 3d 6d da b3 3d e9 33 7a 3b 27 08 05 be
       0.0791046 0.08781896 0.0038177914 -0.12991391
000150 ee 34 c3 3b d5 cb 51 be 87 98 21 3e 6c 5f 42 be
       0.0059572374 -0.20487912 0.15780841 -0.18981713
000160 92 c6 be bd 34 fc 5a bd 4a 9f 20 be b3 bf 48 3d
       -0.09315218 -0.053463176 -0.15685764 0.049010944
000170 10 da f2 3d d3 53 07 bd 0e 41 1d bd 47 48 e2 bd
       0.11857998 -0.033038925 -0.03839212 -0.11048942
000180 ad 96 8b be f6 27 04 3e fb 93 35 be 81 0e e7 bd
       -0.27263394 0.12905869 -0.17732231 -0.11282063
000190 27 69 09 be 6f f8 5e 3e 67 aa 46 3d 5b 7b 48 3e
       -0.13419019 0.21774457 0.048502352 0.19578306
0001a0 c0 8c 2b bd 3f 7c f1 3c 07 e2 11 be 62 38 ba 3d
       -0.041882277 0.02947819 -0.14246379 0.090927854
0001b0 7d 0d 55 3e b9 b6 3b 3c 14 1c 04 be fb e8 ce bd
       0.20805927 0.011457139 -0.12901336 -0.10103031
0001c0 0d 9f 08 be eb 2e 5a 3b b4 a9 f5 bc 15 a1 98 be
       -0.13341923 0.0033292125 -0.029988147 -0.29810396
0001d0 a5 8d 97 3d e7 d1 11 be 43 a0 a1 3c c6 2a 86 3c
       0.074000634 -0.14240228 0.019729739 0.016377818
0001e0 ed c3 ad bd a3 5b 10 be 60 30 60 be 15 e5 36 3e
       -0.084846355 -0.14097457 -0.21893454 0.17860825
0001f0 9d 21 8b bb ad 15 34 3e be 8b aa 3c 88 78 71 ba
       -0.0042459504 0.17586394 0.020818587 -0.0009211381
000200 71 84 cb 3d ba 60 7e bd 8e 5e d7 3c 36 9b 2a 3d
       0.099373706 -0.062103964 0.026290204 0.041651927
000210 18 5e e4 3d b7 4c ef bd 4f e6 33 3c c6 0b 45 be
       0.111507595 -0.11684554 0.010980203 -0.19242772
000220 4b 59 71 3e d1 b5 5f be 1b 92 34 3e b7 50 fc bd
       0.23569219 -0.21846701 0.1763386 -0.12320083
000230 6b b6 33 be 72 be 99 3d 3e 41 41 bd cf 98 93 3d
       -0.17550056 0.07507028 -0.04718136 0.0720688
000240 49 a9 5e 3b 9b 85 9c bd ad 6e 2c bd d9 73 5a 3e
       0.0033975414 -0.07642671 -0.042097736 0.21333255
000250 4f 82 3f 3e 02 c2 89 3c 9c 1b 42 be 95 47 05 3d
       0.18702053 0.016816143 -0.18955845 0.03253897
000260 61 0b 3e 3e 92 9c dd bc 0e e6 1b 3e 1d 27 a5 3d
       0.18559028 -0.027052198 0.15224478 0.08064101
000270 bf df 49 bd 58 b6 d6 bc b7 cf 56 bc a2 54 75 3d
       -0.049285647 -0.026209995 -0.0131110465 0.059895165
000280 9d d0 b7 3d 2e 37 56 bc f8 33 8d bd 6d e5 cf 3b
       0.08975337 -0.013074679 -0.06894678 0.0063444884
000290 1d c1 1a 3e ef 26 58 3d 1f 35 0d 3e 80 d4 b7 bc
       0.1511273 0.052771505 0.13789795 -0.022440195
0002a0 b2 5b 31 3e 69 fc 25 be d9 1f 96 bd 5c 23 3e be
       0.17320135 -0.16209568 -0.07330293 -0.18568176
0002b0 38 db 04 3e e2 fb 0d 3e 8f 1d b6 bd 31 f5 ab 3d
       0.1297425 0.13865617 -0.088923566 0.08396376
0002c0 c2 5d dc 3d 55 11 57 3e 3e 0f cd 3d 50 1c 87 3e
       0.107600704 0.21002705 0.10012673 0.26388788
0002d0 28 bf de 3c 4d fb 2e bd 31 3d ec 3d 17 a8 02 3e
       0.02719076 -0.042720128 0.11535109 0.12759434
0002e0 3c ce 1a bd ca 10 34 3e d1 84 14 3e ca 29 8c 3d
       -0.037794337 0.1758453 0.1450379 0.06843908
0002f0 49 18 aa bd f7 b8 f1 3c 57 17 02 be 30 2e 3c 3e
       -0.08305413 0.029507143 -0.12704216 0.18376994
000300 2d ff da bd 40 c0 de 3d dc b6 29 bd 59 af a3 3d
       -0.10693202 0.108765125 -0.041434154 0.07992429
000310 29 e8 b3 bd a0 d3 49 3e d6 d9 24 be 45 df b2 3d
       -0.087845154 0.19709635 -0.16098723 0.087339915
000320 0f 07 5b be 7a 11 b9 bd 38 7c 61 be 7d a4 30 3e
       -0.21389411 -0.090365365 -0.22020042 0.17250247
000330 78 00 15 3e fb 7d 0b 3e 7a 0e d1 3d 63 76 30 be
       0.1455096 0.13622276 0.10207839 -0.17232661
000340 48 dd b8 bd a6 0d 75 bd a6 4c 60 bd 74 dc 1d bc
       -0.09026581 -0.05982747 -0.054760598 -0.00963508
000350 00 68 4c be 26 7b d9 bd 08 f0 0c be 61 7c 03 be
       -0.19961548 -0.10619192 -0.1376344 -0.12840416
000360 f0 93 9b 3d ce 55 01 3e e6 e8 7b 3d 9c da 2c 3e
       0.07596576 0.12630388 0.061501406 0.16880268
000370 0f 1f 03 3e 66 f9 a4 bc e7 14 17 3e c4 e6 df 3d
       0.12804817 -0.020138454 0.14754067 0.10932687
000380 a7 22 92 bd df c7 6e 3e 06 dd 15 bd 62 62 06 3e
       -0.07135516 0.23318432 -0.036587738 0.13123468
000390 a5 a7 ef bd 3e e4 4a 3e 41 a5 04 bd ae 05 1d 3d
       -0.117018975 0.1981363 -0.03238416 0.038335495
0003a0 c0 cf 56 be f5 05 61 bc 00 24 72 be d3 51 3a 3e
       -0.20977688 -0.01373433 -0.23646545 0.18195276
0003b0 3a a5 5a 3e 5a d3 87 bd 6c 18 19 be 0f 9d cd 3d
       0.21352091 -0.06632109 -0.14950722 0.10039722
0003c0 11 55 18 3e df 00 2f bd fd aa 3a bc 02 57 c1 3c
       0.148762 -0.04272544 -0.011393306 0.023601059
0003d0 73 28 14 bd 03 64 2c be f4 4e 5e 3e 40 a0 9c 3d
       -0.036171388 -0.16835026 0.21709806 0.07647753
0003e0 8a 8c 39 be a3 4e 78 3d 60 84 3c be 07 46 5c 3c
       -0.18120018 0.06062187 -0.18409872 0.01344443
0003f0 d2 39 d8 3d 31 6f 24 3d 11 d8 21 bd c2 61 d5 bd
       0.10557903 0.040145103 -0.039512698 -0.104190364

bias f4 [32]
000000 81 01 ec bd 19 1d 09 be ea 8d 25 bd 1a 0b f4 3d
       -0.11523724 -0.13390006 -0.040418543 0.1191618
000010 3e 46 2e 3e 74 b8 0f be 35 97 c8 bc 4d d0 a9 3d
       0.17018983 -0.14035207 -0.024486164 0.08291683
000020 48 84 92 3d 8c 23 21 3e 8c 44 9d bc 66 6b 0e be
       0.07154137 0.15736216 -0.019197725 -0.13908157
000030 22 13 f7 3d 87 b8 8c bd f0 ff a7 3d 7a 1b 20 bd
       0.12064196 -0.06871133 0.08203113 -0.039088704
000040 4c 3a 81 3d 24 e1 11 3e 3e 7a 3a 3e 1f b4 27 be
       0.06309947 0.1424604 0.18210694 -0.16377304
000050 b3 25 d2 bd 23 20 ba bd 0d e0 cd bd ff 58 1d 3e
       -0.10261097 -0.09088161 -0.100525 0.1536598
000060 5b 80 83 3c 34 72 e0 bd 3c dd 7c bd b5 12 bf bd
       0.016052416 -0.109592825 -0.061734423 -0.0932974
000070 2c e7 76 3d 15 ef 29 be 53 35 38 be eb c7 3c be
       0.060279056 -0.16595109 -0.17989092 -0.18435638

weight f4 [2, 32]
000000 56 ba c2 ba 66 c6 bb 3d f5 dd 64 be d9 c7 ad bd
       -0.0014856558 0.09168701 -0.22350295 -0.084853835
000010 9f 13 7b 3e f0 90 07 3d 65 db 84 bd 91 11 f7 bd
       0.24519204 0.033097208 -0.06487159 -0.120638974
000020 78 2b 87 bd ce 0d 37 3e 75 ea 58 be 9f cb 8a bc
       -0.06600088 0.1787636 -0.21183188 -0.016942797
000030 2b a9 47 3e 2f 6a 41 be a8 9d 0e 3e f3 d2 1f 3e
       0.19498126 -0.18888162 0.13927329 0.15607814
000040 39 93 d4 bd 99 a8 19 be b9 45 34 3e 72 c8 c2 bd
       -0.10379643 -0.15005721 0.17604722 -0.09510888
000050 94 12 e5 3d ed bb 5b bd 79 90 2a 3e 32 50 7a be
       0.11185184 -0.053646017 0.16656674 -0.24444655
000060 47 11 4b bc 81 77 c4 3d 4e f5 39 3e 4c 65 40 be
       -0.012394256 0.09593106 0.18159983 -0.18788642
000070 54 26 68 be d1 1e 50 be 2a f5 3d be ba 66 42 be
       -0.22670871 -0.20324256 -0.18550554 -0.189845
000080 31 41 65 3e a2 a7 21 bd 8b 68 5c 3e 57 d8 97 3e
       0.2238815 -0.039466508 0.21524255 0.29657242
000090 24 d1 0b bd b5 a3 29 be 43 71 ee 3d 93 f4 4d 3e
       -0.034135 -0.16566356 0.11642697 0.20112829
0000a0 04 7a 3c 3e bc 3c 87 be d9 54 4d 3e 8c a8 80 3e
       0.1840592 -0.26413524 0.20051898 0.2512859
0000b0 28 06 85 be b8 5b cd 3d b3 ba 1f 3e 7f 5f e3 bd
       -0.2598126 0.100272596 0.15598564 -0.11102199
0000c0 16 a4 bc 3d c4 f1 36 3e b7 77 2a bd 77 8f 07 3e
       0.092109844 0.17865664 -0.041618075 0.13238321
0000d0 46 87 d2 3d f4 78 7c 3e 36 0d 9e bd e0 e6 74 3e
       0.102797076 0.24655515 -0.077173635 0.23916197
0000e0 01 32 99 be 3d 3b e5 bd 3d 78 1f be ac e9 ee bc
       -0.29920962 -0.111929394 -0.15573211 -0.029164158
0000f0 67 34 95 3e a8 be ff 3d 5a d0 30 3e 40 db 6b 3e
       0.29141542 0.12487537 0.1726698 0.23032856

bias f4 [2]
000000 0c 05 fc bd e2 6c f1 bc
       -0.1230565 -0.029470865

weight f4 [32, 4]
000000 4a 2d 48 3b c1 87 f0 3d 7c c6 66 3e 90 0a 64 be
       0.0030544573 0.11744643 0.22536653 -0.22269654
000010 4d 5a c8 bd 47 28 e6 3e 0a ca 27 be a2 f1 c4 be
       -0.097828485 0.44952604 -0.16385666 -0.384656
000020 30 ad 0e bc 14 de c7 3d aa ce 3e be ab 68 11 bd
       -0.008708283 0.09759155 -0.18633524 -0.03550021
000030 80 23 c9 bd 1c 2d a3 be 33 0a 74 3e e4 de 72 be
       -0.09821224 -0.31870353 0.23832016 -0.23717839
000040 ab c5 b7 3e 68 60 bb be ec b3 b8 bc 38 f0 43 bc
       0.35892996 -0.3659699 -0.022546731 -0.011959128
000050 26 a4 1b 3e c4 8a af 3e 18 74 d8 3e 9d 05 8b 3e
       0.15199336 0.34285557 0.42276073 0.2715272
000060 c7 ac 08 be c9 58 bf be 4f 84 c6 be 60 2e 76 3d
       -0.1334716 -0.37372425 -0.38772818 0.06010282
000070 8c a5 a0 3e b0 fc c7 bd df f6 d0 bd d8 a6 ce be
       0.31376302 -0.09764993 -0.10203337 -0.40361667
000080 63 bb 3d 3d 6c db 73 3e ec 20 19 bf 47 ae b7 be
       0.046321284 0.23814172 -0.5981586 -0.3587515
000090 6d 3c 80 3e a2 00 30 3d 20 21 30 bc cd 28 03 3e
       0.250461 0.042969353 -0.010750085 0.12808533
0000a0 20 a4 1b bd b0 fc b1 be 2f da d8 be 41 bb b7 3e
       -0.03799832 -0.34763098 -0.4235396 0.3588505
0000b0 8f 23 a4 3d f4 f2 c3 bd 0a 1f 43 be de ac a1 be
       0.08014595 -0.09567824 -0.19054809 -0.315772
0000c0 cd b1 e9 3d ff dc 4f be 15 2a ec 3e 16 4a 21 3e
       0.11410866 -0.20299147 0.46125856 0.15750918
0000d0 e8 e2 7f bd 40 ec e1 bd 84 c3 58 3e 24 11 3e be
       -0.062472254 -0.11031389 0.21168333 -0.18561226
0000e0 19 32 9b 3c f9 24 ef 3d 9c 1f ce be 4d 3a b7 3d
       0.018944787 0.11676974 -0.4025849 0.08946667
0000f0 77 d4 a2 bd 67 2a c4 3e 86 67 6e be b7 84 17 be
       -0.07950681 0.383136 -0.23281679 -0.1479672
000100 3c 0d cc 3e 1d cc b3 be eb 45 d3 3d ae 73 e0 3e
       0.39853847 -0.35116664 0.1031607 0.43838257
000110 80 f6 98 be 10 3b d3 3e ba 46 dc 3e d9 5f ed 3e
       -0.29875565 0.41256 0.4302271 0.46362188
000120 ee 0b 19 be 88 27 bd 3e 7e 5b 9c be 42 45 22 be
       -0.14945957 0.36944222 -0.30538553 -0.15846732
000130 2b c8 7d 3d fc a7 85 3d 83 39 58 3e c5 8d e1 3e
       0.061958473 0.06526181 0.21115689 0.44053474
000140 08 d5 73 be 08 72 82 3e 76 4d 25 3e 2d 4c 95 3e
       -0.23811734 0.25477624 0.1614283 0.2915968
000150 37 e4 6f 3e fc 41 3f be 59 c0 bc be 3a 7d db 3e
       0.23426901 -0.18677515 -0.368655 0.42868978
000160 8e 9b 87 be d5 df 93 3e 38 78 09 bf b0 8e d6 bd
       -0.26485866 0.28881708 -0.53699064 -0.10476434
000170 2b c0 2e bd 6b 88 88 3d fb e3 05 3d 32 77 37 3e
       -0.042663734 0.06666645 0.032688122 0.17916563
000180 af 4d 74 bd ce a5 e1 3d f7 5c c9 3e 95 46 ae be
       -0.059644397 0.11017953 0.3932874 -0.34038225
000190 71 ec a4 3d 0f e6 45 bd 7f 26 08 3f 1c 13 d4 3e
       0.0805291 -0.048315104 0.5318374 0.4142083
0001a0 9c 35 b2 3d 4c 4b 61 bd be aa 8b be 98 77 a5 3e
       0.087016314 -0.05500345 -0.27278703 0.32317805
0001b0 75 d2 38 be e5 69 bd 3e d4 52 1e 3e 65 b7 d5 3e
       -0.18049033 0.36994854 0.15461284 0.4174148
0001c0 b0 86 ad 3e a7 65 a0 be d4 c5 29 3e 69 70 46 be
       0.3389182 -0.31327555 0.16579372 -0.19378819
0001d0 11 33 06 3e 86 c1 12 be 37 3e a6 3d 54 a5 98 be
       0.13105418 -0.14331636 0.08117335 -0.29813635
0001e0 e2 82 9c be 1e 04 51 3e 73 f7 fd 3d 7d 43 83 3d
       -0.30568606 0.20411727 0.12400713 0.06409357
0001f0 49 4d 96 3e ab 3a 60 be 41 97 2e 3e d8 60 84 be
       0.2935584 -0.2189738 0.17049886 -0.25855136

bias f4 [32]
000000 fe 48 24 3e a4 a5 80 bd 70 f6 c4 3e eb 5a fc 3e
       0.1604347 -0.062815934 0.38469267 0.49288115
000010 b8 b2 fd 3e 15 d9 ef 3c 60 d2 84 3e 3b 8d f6 be
       0.49550414 0.029278317 0.25941753 -0.48154625
000020 2b 2d 98 be 04 20 a5 3d 7e 16 41 bd 47 a3 d5 be
       -0.2972196 0.08062747 -0.04714059 -0.41726133
000030 84 d7 8c be 41 d4 97 be a4 f3 09 bf 30 18 eb 3d
       -0.27508175 -0.29654124 -0.5388739 0.11479223
000040 d2 f0 d3 3e 57 8b 8e 3e 80 9e 97 be 25 4e f2 be
       0.4139467 0.27840683 -0.29613113 -0.47325245
000050 d3 58 f0 be b2 00 75 bd 97 bb d0 3e c0 9d 89 be
       -0.46942768 -0.059815116 0.4076812 -0.26878166
000060 28 82 a0 be cf 85 b3 be cc e3 c3 bd a9 59 05 bf
       -0.313493 -0.35063025 -0.09564933 -0.52089936
000070 11 96 00 bf 16 7f 03 3f 96 df 97 be a5 7f 17 be
       -0.50228983 0.5136579 -0.2966277 -0.14794786

weight f4 [32, 32]
000000 bf 1c a9 bd 65 fc 25 be f5 f3 91 bd 98 3b f6 3b
       -0.08257436 -0.16209562 -0.07126609 0.0075144283
000010 87 2f 02 be 7e 39 9c 3b 32 6b 63 bd c5 1d f9 bd
       -0.12713443 0.004767596 -0.05552215 -0.12163881
000020 cd af 63 3e f8 da df 3d af 5d 10 3e 1a b8 94 bb
       0.22235031 0.10930437 0.14098237 -0.004538548
000030 9c 1a 03 3e ed 8e f5 bd 3b 0b ce 3b f9 1d 77 bd
       0.1280312 -0.119901516 0.00628796 -0.06033132
000040 28 bd 23 be c8 ca b5 3c 5d c7 a8 3c e8 d9 ca 3c
       -0.15990126 0.02219142 0.020602876 0.024762109
000050 c7 f8 28 bb 59 4d 0e be a3 76 93 bd 66 a2 d0 bd
       -0.0025783048 -0.13896693 -0.072003625 -0.10187225
000060 7c ee 36 3e 6d 8a 0b 3e 86 c7 47 3e c9 65 4c bc
       0.17864412 0.13627024 0.19509706 -0.012475439
000070 a4 bd 68 3d 60 65 3d bc e8 46 67 3e 35 34 6c 3e
       0.05682148 -0.011559814 0.22585642 0.2306679
000080 a8 9b 4f bd c3 aa eb bd 80 c1 f3 bd 26 3e 63 bd
       -0.050685555 -0.115071796 -0.119021416 -0.05547919
000090 1b 33 47 3e 29 f7 24 3e 73 9c 44 3e 55 9d b3 3d
       0.19453089 0.16109909 0.19200306 0.08770243
0000a0 90 ef 27 bd 6c 94 5f bd 0b ec 08 3e 0b 47 b9 3d
       -0.04099995 -0.054584906 0.13371293 0.090467535
0000b0 1a 4f 1d 3d c5 bb 13 be a3 86 c7 3d 10 49 5b 3d
       0.038405515 -0.14427097 0.09742477 0.053536475
0000c0 45 f8 42 3e f9 4e 0d 3e 43 8f 2e 3d 18 82 45 be
       0.1904002 0.13799657 0.042617094 -0.19287908
0000d0 21 9f 0f be 3f 8e 96 3d bd 4a 83 3b f7 c8 47 be
       -0.14025547 0.0735135 0.004006712 -0.19510256
0000e0 2c 04 dc 3d 23 67 33 bd d0 1d e1 3d 9e 05 31 be
       0.10742983 -0.04379953 0.109920144 -0.17287299
0000f0 fa 8c 88 3c 07 2d c9 bc 26 10 f4 bd 85 05 c4 bd
       0.016668785 -0.024557604 -0.119171426 -0.09571365
000100 35 cc f6 bc 13 a1 db 3d c0 9b b9 3b 28 36 34 3e
       -0.03012667 0.10724082 0.005664319 0.17598784
000110 16 3f c0 3d 72 a6 3c bc 2d cd 62 bd f7 46 59 be
       0.09387033 -0.011514293 -0.055371452 -0.21218477
000120 a9 8d 09 be fe 32 fc bd bd a2 64 bd b7 ae 48 bd
       -0.13432945 -0.123144135 -0.05581926 -0.048994746
000130 26 e0 3d bd 12 09 08 be dc fd 9a 3d 47 7e 00 3e
       -0.046356343 -0.1328471 0.07567951 0.12548171
000140 ea 5c 60 3d 9a 1c 8e bc ce fe 90 3c 04 5d e4 3d
       0.05477611 -0.017347623 0.017699625 0.11150554
000150 0a 80 55 be db ae 81 bd 5f 03 c8 3c 2e 70 e0 bd
       -0.20849624 -0.06332179 0.02441567 -0.109588966
000160 d2 8d a2 3d fb 92 87 bd be 02 f9 3d 4f ae 2e bd
       0.07937206 -0.06619831 0.12158726 -0.042646702
000170 2f 58 84 bd 7f 9d 70 bd 4d cb dc bd ce ee bf bb
       -0.06462132 -0.05874395 -0.10780964 -0.005857325
000180 f6 0d e5 3d e0 15 f4 bc 72 ac 55 3e 02 15 8f bd
       0.111843035 -0.029795587 0.20866564 -0.06986429
000190 cf 59 fd 3d d3 d6 b9 3d 1e 9f 03 3d b7 af ac 3d
       0.12370645 0.090741776 0.032134168 0.084319524
0001a0 a9 48 b1 bd 2a ca e3 bd 69 27 d8 bd d6 81 56 3c
       -0.08656437 -0.11122544 -0.10554392 0.013092479
0001b0 d6 0a e5 bd ef e6 ad ba 23 24 f8 3d 20 51 9f 3d
       -0.111837074 -0.0013267676 0.121162675 0.07779145
0001c0 80 01 82 3d 47 a7 b9 3d 03 88 47 be a9 58 4a be
       0.06347942 0.09065109 -0.19485478 -0.19760384
0001d0 39 cd 3b be 81 79 32 be 2c 5a a6 3d 2c 55 89 bc
       -0.18340005 -0.17429163 0.08122668 -0.016764246
0001e0 5b c9 16 be 28 bf 5d be a3 cb 88 3d 43 6c 1b be
       -0.14725249 -0.21654952 0.066794656 -0.15178017
0001f0 88 5f a2 bd b4 61 cd bd db 69 18 be 64 24 75 3b
       -0.079283774 -0.10028401 -0.1488413 0.0037405724
000200 ba ea 51 be a6 8b fe bd 2d 95 b7 3d ab ca 06 be
       -0.20499697 -0.124289796 0.08964 -0.13163249
000210 7f d7 01 be a8 c7 e6 bd 55 37 0b 3d 0b 91 82 bd
       -0.12679861 -0.1126855 0.033988316 -0.06375321
000220 a1 53 b8 3d d8 9f b3 3c 74 9c a2 3c f4 b6 b2 3d
       0.09000326 0.021926805 0.019849993 0.08726302
000230 a8 43 c3 bd a5 48 05 3e ef 39 e9 3d f9 bc 66 bd
       -0.09534389 0.13015993 0.11388003 -0.056332562
000240 d6 13 77 be f0 2b fd 3b af e2 4a 3e 2c ab 43 3c
       -0.2412866 0.007726185 0.19813035 0.011942666
000250 92 87 05 3e 2c 5f c6 3d 7a 1c ea bd a6 e1 09 3d
       0.13039997 0.09686121 -0.11431213 0.03366246
000260 da 77 7b 3e 3f e3 31 3d 3f 42 dc bd 91 2b f3 3c
       0.24557438 0.04342961 -0.10754823 0.02968386
000270 f2 41 0b 3e 29 15 d4 bd 0f 11 2f bd c1 e7 59 3e
       0.13599375 -0.103555985 -0.042740878 0.21279813
000280 8c ae 03 3e e2 7f 90 bc 55 c0 43 3d 8b e4 c9 3c
       0.12859553 -0.017639104 0.047790844 0.02464511
000290 e0 05 be 3d bd c8 d0 3b f3 23 6c bd 82 95 8a bc
       0.09278464 0.006371586 -0.05765147 -0.016916994
0002a0 d9 eb a8 bd 1a 4b 40 3d 18 49 ba bd 2d 4f 8e bb
       -0.08248109 0.046946622 -0.09095973 -0.0043429346
0002b0 4b 4b 36 be 31 c8 10 3c a2 ad 4a 3d 8a af e4 3b
       -0.1780216 0.008836792 0.049481995 0.0069789337
0002c0 18 75 2b bd fa e0 45 3d 54 3c c4 bd d3 c0 47 be
       -0.041859716 0.048310257 -0.09581819 -0.1950715
0002d0 a6 c7 2e be 67 4d 0b 3e 82 e0 30 3e 3e 27 59 3d
       -0.17068347 0.13603745 0.17273143 0.05301594
0002e0 9f 1d 5a 3d e3 76 e6 3c b6 d5 8e 3d e6 24 96 3d
       0.053250905 0.028132861 0.06974356 0.073312566
0002f0 39 f0 af bd 3d 6b ac 3c b6 6b a1 3d 1a 07 7c bd
       -0.08590741 0.021047229 0.07881872 -0.06153021
000300 8d 33 16 be 5f 85 16 be 81 15 82 3d 0c e7 d2 3d
       -0.14668103 -0.14699315 0.06351758 0.10297975
000310 fe db b9 3d 94 35 77 3d 4b 53 8f 3d 63 95 ec bd
       0.09075163 0.06035383 0.06998309 -0.11551931
000320 e8 a9 1a bd 47 c8 47 be c3 92 26 3e f5 d5 2d 3d
       -0.03775969 -0.19509993 0.16266923 0.042440373
000330 47 6e 49 bd 02 cb c8 3d 8d 74 bd bc a0 ef 0b be
       -0.049177434 0.09804346 -0.023126865 -0.13665628
000340 51 33 50 bc 2a 8d 13 bc 2f c1 0a bd ae 69 9c bd
       -0.012707547 -0.009005824 -0.03387564 -0.07637344
000350 cf 3f ff 3d dd 8f 25 3e 10 b1 bd bc 7d da 41 bd
       0.124633424 0.1616816 -0.023155719 -0.047327507
000360 2e 57 16 3e c4 ef 8a 3d 13 7e 01 be 9e aa 94 bd
       0.14681694 0.06784013 -0.1264575 -0.07259105
000370 68 2e a3 3d 32 56 8e 3d 23 89 76 bc 18 c2 11 3e
       0.07967836 0.06950034 -0.015047344 0.14234197
000380 f1 3c 17 be 50 3a 18 3e 80 89 af 3d 3b ef 9d bb
       -0.14769341 0.14865994 0.08571148 -0.0048197783
000390 d3 36 e5 3c 84 72 ed 3b 83 df 10 be bc 13 35 3d
       0.027980244 0.0072463173 -0.14147763 0.044208273
0003a0 8b 71 dd 3d 78 b8 b7 bd 46 23 4d 3e 32 8c 96 bc
       0.10812672 -0.089707315 0.20032987 -0.018377397
0003b0 be ed f7 bd 8b 42 18 bd 00 f9 f4 bd d7 71 e9 3d
       -0.121058926 -0.037172835 -0.119615555 0.11398666
0003c0 d2 3a 28 be cc c1 34 be 41 20 5c 3d e1 e4 a0 bd
       -0.16428688 -0.17652053 0.053741697 -0.07856155
0003d0 56 53 40 bd 8d b4 f0 3d 0a 22 31 be 5e 77 02 3e
       -0.046954475 0.11753187 -0.17298141 0.12740847
0003e0 af f9 42 3e a5 5a 23 3d 79 76 df 3d 5d 12 6e bd
       0.19040559 0.039881367 0.10911269 -0.05812298
0003f0 e2 cd 39 3e 71 39 03 3e 1f 09 ba 3d 3c 79 5a 3e
       0.18144944 0.12814881 0.09083771 0.2133531

bias f4 [32]
000000 82 34 f6 bc 96 cd 8e 3d 85 46 7b bd ff ae 3a 3e
       -0.030054335 0.06972806 -0.06134655 0.18230818
000010 72 32 32 3d 43 27 bc bd 04 dd 53 be 71 63 bb bd
       0.04350514 -0.09187176 -0.2068978 -0.09149826
000020 4d 2f 2c 3e 87 08 18 bd 3d 0f f4 3d 10 a4 13 bd
       0.16814919 -0.037117507 0.11916969 -0.036045134
000030 ec 01 5f be 6e 46 04 3e f2 54 6e bd f0 99 88 3c
       -0.21778077 0.12917492 -0.05818648 0.016674966
000040 ed 95 ce bd 02 ae 8a bd dd d8 fa bd 82 dc 55 be
       -0.1008719 -0.067714706 -0.12248395 -0.20884898
000050 53 34 0c 3e bc bb 92 bd d4 7c 28 be 6c 03 44 3d
       0.13691835 -0.07164714 -0.16453868 0.047854826
000060 ba 1f 5a be 97 8d 83 bb 01 06 0a 3e 44 c8 00 3e
       -0.21301165 -0.0040146816 0.13478853 0.12576395
000070 2e 70 ca bd 93 4a 91 bd db f6 21 3e 0c e4 61 3e
       -0.09884678 -0.07094302 0.15816824 0.22059649

weight f4 [1, 32]
000000 a5 73 20 be 6f 15 ea 3d e9 c7 97 3d 06 f9 1f 3e
       -0.15669115 0.114298694 0.07411177 0.15622339
000010 49 ca 43 be ab 24 de 3d da b5 4e bd f5 c4 d9 bd
       -0.19120134 0.108468376 -0.050466396 -0.1063327
000020 37 1e 95 3d 7d dd 4b 3e a9 11 b1 bd 62 94 13 3e
       0.07281154 0.1990871 -0.086459465 0.14412072
000030 03 ac 9c bd d4 b7 db 3d ec df 1b 3e d6 f9 60 3d
       -0.07649996 0.10728422 0.15222138 0.054925762
000040 9c b3 06 be 4a 09 e5 bd 7d 54 9f bb 16 8c 50 be
       -0.13154453 -0.111834124 -0.0048623667 -0.20365939
000050 d6 08 bb 3d 6c e0 14 be 0f 69 b8 bd 03 50 f2 3d
       0.09132545 -0.14538735 -0.09004413 0.11831667
000060 38 09 42 be a9 97 2c be 88 a8 05 3e 6d ed 0e be
       -0.18948829 -0.16854729 0.13052571 -0.13957758
000070 14 7a b6 3d 46 90 41 be 85 fb 4e 3d 02 7e bb 3d
       0.08910003 -0.18902692 0.050532836 0.091548935
