PolicySeries/VPG_model.pth (torch, 16667 bytes, 11 tensors)

weight f4 [32, 4]
0	0x3d9c382b	0.07627901
1	0x3e342d04	0.17595297
2	0xbf5d8951	-0.86537653
3	0xbf2f1c4e	-0.68402565
4	0xbe3279aa	-0.17429224
5	0x3eac5ed6	0.33666104
6	0x3eaaed9a	0.333844
7	0x3f124dab	0.5714976
8	0x3da96239	0.082706876
9	0x3d90ff9e	0.07080005
10	0xbf1ecc2d	-0.620303
11	0xbed67aec	-0.41890657
12	0xbec35864	-0.38153374
13	0xbe8703d5	-0.2637011
14	0x3d99b733	0.075056456
15	0x3e6f434b	0.23365514
16	0x3e8d725f	0.2762632
17	0x3e5fe45a	0.21864453
18	0xbf430ad7	-0.76188415
19	0xbefd19ec	-0.4943384
20	0x3df26ea4	0.11837509
21	0x3f179877	0.5921702
22	0x3e995f22	0.29955393
23	0x3f260611	0.64853007
24	0xbd71e94a	-0.059060372
25	0xbe1e31c5	-0.15448673
26	0x3e0d5352	0.13801315
27	0xbf0a2d1f	-0.539751
28	0xbeaebf48	-0.3413031
29	0x3d858118	0.06518763
30	0x3e675a00	0.22592926
31	0x3f3d80b9	0.7402454
32	0xbe8f4586	-0.2798273
33	0xbeee2517	-0.46512672
34	0xbf363176	-0.7116922
35	0xbf252535	-0.645099
36	0xbe9c1e7d	-0.3049201
37	0x3f1693a6	0.58819044
38	0x3eead3ca	0.45864707
39	0x3e736225	0.23767908
40	0xbab09514	-0.0013472163
41	0xbf03701d	-0.51342946
42	0xbe7ef1ac	-0.24896878
43	0xbf1a2ea4	-0.6022742
44	0xbed69acb	-0.41914973
45	0xbe1ca19c	-0.15296024
46	0x3f3e4f3c	0.7433965
47	0x3f14f484	0.581856
48	0xbeb2eb57	-0.34945175
49	0x3c6cec69	0.014460661
50	0x3f49f5ff	0.78890985
51	0x3f501b76	0.812919
52	0x3e4c0637	0.19924246
53	0xbe319064	-0.17340237
54	0xbd601478	-0.05470702
55	0xbf0997ee	-0.5374745
56	0x3dc0402d	0.093872406
57	0xbf0b5ee5	-0.5444167
58	0xbf0e3c31	-0.55560595
59	0xbe7cbd40	-0.24681568
60	0x3ea50c47	0.3223593
61	0x3dbe3720	0.09287858
62	0xbf39a380	-0.72515106
63	0xbe23fefc	-0.16015238
64	0x3e89659a	0.26835328
65	0x3e3649f3	0.17801647
66	0x3e8f315a	0.2796734
67	0x3e004fc5	0.1253043
68	0x3eb9147d	0.36148444
69	0x3ebf6bcc	0.3738693
70	0xbf445be8	-0.7670274
71	0xbee52e6a	-0.44761974
72	0x3c13d25f	0.009022324
73	0x3eca5908	0.3952105
74	0x3f600b71	0.8751746
75	0x3f2c9e4f	0.6742906
76	0x3e229f6e	0.1588113
77	0xbf05addb	-0.5221841
78	0xbec4e109	-0.38452938
79	0xbf17701d	-0.59155446
80	0xbec011bd	-0.37513533
81	0x3ec04dc5	0.37559333
82	0xbb851c76	-0.0040622307
83	0xbf482bca	-0.78191817
84	0x3e860226	0.26173514
85	0xbc976586	-0.018481027
86	0xbef9b2d2	-0.48769242
87	0xbedd24b3	-0.43192062
88	0x3e61a3c1	0.22035123
89	0xbb8c3547	-0.004278812
90	0x3f02ab3d	0.5104254
91	0x3ecee096	0.4040572
92	0x3edbdb61	0.4294081
93	0x3dd59441	0.10428668
94	0xbf6c0caf	-0.92206854
95	0xbf180523	-0.5938284
96	0x3e8def38	0.27721572
97	0xbdc5412d	-0.09631572
98	0xbf4d223d	-0.8013037
99	0xbf065119	-0.52467495
100	0x3ee5937a	0.44839078
101	0x3e0839f3	0.13303356
102	0xbf140631	-0.5782195
103	0xbebf4e00	-0.37364197
104	0xbebfc73f	-0.374567
105	0xbe341290	-0.17585206
106	0xbf51e13b	-0.819843
107	0xbf314860	-0.6925106
108	0xbd5d98c0	-0.054100752
109	0x3e8f137d	0.27944556
110	0x3e4adcc0	0.19810772
111	0x3f0dfdca	0.55465376
112	0xbe887983	-0.26655206
113	0x3e6660fc	0.22497934
114	0x3c046033	0.008079576
115	0xbf0cc2d9	-0.54984814
116	0xbdce3834	-0.10069314
117	0x3e654786	0.22390565
118	0x3eb4fac6	0.35347575
119	0x3e1e61ad	0.15466948
120	0x3df82508	0.12116438
121	0x3e45da74	0.19321615
122	0x3e333c57	0.17503487
123	0x3f0501d9	0.51955944
124	0xbe9edeb2	-0.31029278
125	0xbe886d2f	-0.266458
126	0xbef05add	-0.46944323
127	0xbecff850	-0.40619135

bias f4 [32]
0	0xbd91f970	-0.071276546
1	0xbec99e90	-0.39378786
2	0x3d584b61	0.052806262
3	0x3d9730b5	0.07382337
4	0xbe4a45ae	-0.19753143
5	0xbdb5459d	-0.08851168
6	0x3ebd0082	0.3691445
7	0xbdb2002d	-0.0869144
8	0x3da347e7	0.07972699
9	0xbd282a0e	-0.04105573
10	0x3d9f46c2	0.07777168
11	0x3e43b3b6	0.19111523
12	0x3e916093	0.28393993
13	0x3ea94ac3	0.3306485
14	0x3ed52e2c	0.4163679
15	0x3d84b57f	0.0647993
16	0xbece5c70	-0.403049
17	0xbe11fc25	-0.14256342
18	0x3def5cfb	0.116876565
19	0x3d0f7852	0.035026856
20	0xbe053255	-0.13007481
21	0xbe18df99	-0.14929046
22	0xbedc23ba	-0.42996007
23	0xbe944714	-0.28960478
24	0xbd177b8b	-0.036983054
25	0x3e9836a1	0.2972918
26	0x3e9da98c	0.30793417
27	0xbf02c722	-0.510851
28	0x3eb6b112	0.3568197
29	0xbeb1794f	-0.34662864
30	0xbe35970a	-0.17733398
31	0xbc9341b5	-0.017975667

weight f4 [32, 32]
0	0xbe90e443	-0.2829915
1	0x3e2d7879	0.16940488
2	0xbed1570c	-0.40886724
3	0xbd9e1963	-0.07719686
4	0xbe346fc5	-0.17620762
5	0x3e335762	0.17513803
6	0xbe01321b	-0.1261677
7	0x3e9841d0	0.2973771
8	0xbeb39d7e	-0.35081095
9	0x3e81ed06	0.25376147
10	0xbc7c7d10	-0.015410677
11	0x3e1ed8db	0.15512411
12	0x3ec98546	0.39359492
13	0xbd94cb37	-0.07265323
14	0xbeb7481f	-0.35797212
15	0xbd99911e	-0.07498382
16	0xbd0a62a4	-0.033785477
17	0xbe66433a	-0.22486582
18	0x3e95a63c	0.2922839
19	0xbeb5792f	-0.35444018
20	0x3d2a85cd	0.04163151
21	0xbe229f4d	-0.15881081
22	0x3e053b6a	0.13010946
23	0xbe21c985	-0.1579953
24	0xbe88aca8	-0.26694226
25	0xbd2e1846	-0.042503618
26	0xbe1360b8	-0.14392364
27	0x3da5c5ee	0.08094393
28	0xbdc7540d	-0.09732828
29	0x3e515080	0.20440865
30	0x3e3e1f40	0.18566608
31	0x3da473c3	0.08029892
32	0x3d1437f2	0.036186166
33	0xbdd6ffa0	-0.10497975
34	0x3d9b7c79	0.07592101
35	0xbe43b745	-0.1911288
36	0x3d687ffd	0.056762684
37	0xbe380c14	-0.17973357
38	0xbbb5919b	-0.005541039
39	0xbe05d559	-0.13069667
40	0x3e4939c5	0.19650944
41	0xbe0bb243	-0.1364222
42	0x3cae0f43	0.021247512
43	0xbe9fec6a	-0.31235057
44	0xbe9b6f83	-0.30358514
45	0x3e6197ed	0.22030611
46	0x3d4c0cbc	0.049816832
47	0x3e9d6d1e	0.30747312
48	0xbc82fe7e	-0.015990492
49	0x3e39e9d7	0.18155609
50	0xbe0c23b4	-0.13685495
51	0x3e43451b	0.1906933
52	0x3e0c47b8	0.13699234
53	0xbcb06a5a	-0.021535087
54	0xbda87347	-0.082251124
55	0x3e4f9439	0.20271386
56	0x3d17bd82	0.037045963
57	0xbb9ca9a0	-0.004780963
58	0x3e87713a	0.26453573
59	0xbe74f1e4	-0.23920399
60	0x3d985a46	0.07439093
61	0x3dabbb26	0.08385305
62	0xbd2cb47a	-0.042164303
63	0x3d0fe7d3	0.035133194
64	0xbeb8c463	-0.3608733
65	0x3e89ca6f	0.26912257
66	0xbebab152	-0.3646341
67	0x3c8bc805	0.01706315
68	0xbe55176a	-0.20809713
69	0x3e38f60a	0.18062606
70	0xbd941f01	-0.07232476
71	0x3eafa1ab	0.3430303
72	0xbe41689f	-0.18887566
73	0x3ee2525a	0.44203454
74	0xbd9f1b54	-0.07768884
75	0x3dcac0a6	0.09900026
76	0x3ea5a88b	0.3235515
77	0xbe84ee8b	-0.25963244
78	0xbe8444ca	-0.25833732
79	0xbdf49e3a	-0.11944242
80	0x3db1e1de	0.08685659
81	0xbbd74770	-0.0065697953
82	0x3dc94cfb	0.09829136
83	0xbe5d9d03	-0.21641926
84	0x3dcc92ed	0.09988961
85	0xbe87930e	-0.2647938
86	0x3e2bce9f	0.16778038
87	0xbeb303ab	-0.34963736
88	0xbe9681dd	-0.29395953
89	0xbe0a6a55	-0.13517125
90	0xbe579b42	-0.2105532
91	0x3e17d6e8	0.14828074
92	0x3e0f0bc1	0.13969328
93	0x3d7b309c	0.061325654
94	0xbcd9ab11	-0.026570829
95	0xbddd34fb	-0.10801121
96	0xbec7c8d6	-0.39020413
97	0x3e9c532e	0.3053221
98	0xbea50144	-0.32227528
99	0xbd7743ba	-0.060367323
100	0xbe7e3d5c	-0.24828094
101	0x3ea7ab50	0.3274789
102	0xbc861c83	-0.016371017
103	0x3eb7ed21	0.35923102
104	0xbe2ba90b	-0.16763704
105	0x3e75c21d	0.2399983
106	0xbe8c05c9	-0.27348164
107	0x3e84a693	0.25908336
108	0x3ed02c4f	0.40658805
109	0xbe0072d0	-0.12543797
110	0xbea063b3	-0.31326064
111	0xbe7f2fb6	-0.24920544
112	0xbdcb3cd9	-0.09923715
113	0xbdba0e02	-0.09084703
114	0x3d6f985b	0.058494907
115	0xbebeec73	-0.3728977
116	0x3e25cec4	0.16192156
117	0xbe3d3732	-0.18478087
118	0x3d6a9919	0.05727491
119	0xbe232b35	-0.15934451
120	0xbe9a9d12	-0.3019796
121	0xbe80d5f3	-0.2516323
122	0xbe994720	-0.29937077
123	0x3e9cde0a	0.30638152
124	0xbbceca56	-0.0063107414
125	0x3e9a853e	0.3017978
126	0x3d7dc1cb	0.061952394
127	0x3cd3499c	0.025791936
128	0xbe81d374	-0.25356638
129	0x3e530d6f	0.20610593
130	0xbe425688	-0.18978322
131	0xbd6da771	-0.058021013
132	0x3d56fe45	0.052488584
133	0x3e768723	0.24074988
134	0xbdf74a93	-0.12074771
135	0x3de0333b	0.109472714
136	0xbdddd919	-0.10832424
137	0x3e413b5e	0.18870303
138	0xbe28303e	-0.16424653
139	0x3c17222a	0.009224454
140	0x3c950de7	0.018195106
141	0xbdd0d5fb	-0.101970635
142	0xbeab0e03	-0.33409128
143	0x3d0fb943	0.03508879
144	0x3d98d4d7	0.07462471
145	0xbdb8762a	-0.09006913
146	0x3dfd0f16	0.12356393
147	0xbe67f514	-0.22652084
148	0x3e1c3b67	0.15257035
149	0xbd83d29a	-0.064366534
150	0xbdc01edb	-0.09380885
151	0xbdd44e78	-0.10366529
152	0xbe87591c	-0.26435173
153	0xbe29e48d	-0.16591091
154	0xbdc05423	-0.09391048
155	0x3e85101e	0.2598886
156	0xbda7b7bd	-0.08189342
157	0x3e080dac	0.13286465
158	0x3e39c76e	0.18142483
159	0xbbff011c	-0.0077821147
160	0x3e3b3f99	0.1828598
161	0xbdd444cc	-0.103646845
162	0x3d8eeb25	0.06978444
163	0xbd786d41	-0.060651068
164	0x3e8fc098	0.28076625
165	0xbdb86154	-0.09002939
166	0x3e537d79	0.20653333
167	0xbde44764	-0.11146429
168	0x3e956fc9	0.29186848
169	0xbeb30a1e	-0.34968656
170	0x3ce8b68c	0.028407358
171	0xbeb21c88	-0.34787393
172	0xbd2741cb	-0.04083423
173	0x3e5c8677	0.2153567
174	0x3c189ad9	0.009314262
175	0x3e6649cb	0.22489087
176	0x3d56754c	0.052357957
177	0x3ea83e33	0.32859954
178	0xbad0f2a8	-0.0015941458
179	0x3eb9c34a	0.36281806
180	0x3d6505ac	0.055913612
181	0xbd084afb	-0.033274632
182	0x3d7f7597	0.062368
183	0x3e93a5ba	0.28837377
184	0x3daf0ced	0.08547387
185	0x3e7ee404	0.24891669
186	0x3e601631	0.21883465
187	0xbc15e676	-0.009149184
188	0xbceee19e	-0.029160317
189	0xbd421e60	-0.04739225
190	0xbe34a38f	-0.17640518
191	0x3e3df041	0.18548681
192	0xbe4b6fb9	-0.19866838
193	0x3e5f1243	0.2178431
194	0xbe31e63c	-0.17372984
195	0x3e0df8cf	0.13864444
196	0xbe5a1158	-0.21295679
197	0x3eb21b92	0.3478666
198	0xbe6d36a7	-0.2316538
199	0x3e404ad1	0.1877854
200	0xbeb00fca	-0.34387046
201	0x3dfb4dcc	0.12270698
202	0xbeaf6ae2	-0.34261233
203	0x3eabf531	0.33585504
204	0x3eab2690	0.33427858
205	0x3d449dfb	0.048002224
206	0xbcb2ecc3	-0.021841412
207	0xbea0fa02	-0.3144074
208	0xbd0ea3e2	-0.03482426
209	0xbe15250e	-0.14564916
210	0x3d69dbe5	0.057094473
211	0xbdeca542	-0.11554958
212	0xbe4764f7	-0.19472109
213	0xbdf578ad	-0.11985908
214	0xbdabf9eb	-0.083972774
215	0xbe9a0985	-0.30085388
216	0xbd87f337	-0.066381864
217	0x3d3d8daa	0.04627768
218	0xbc8f92f6	-0.017526131
219	0x3e84fc31	0.25973657
220	0x3dab12f8	0.083532274
221	0x3d90997f	0.07060527
222	0x3e4c86d2	0.19973305
223	0x3de7ce2e	0.113186225
224	0x3e9fe007	0.31225607
225	0xbd8da9e5	-0.069171704
226	0x3e66daf8	0.22544467
227	0x3e37d4ff	0.17952345
228	0xbc6eabbe	-0.014567314
229	0xbe1765c2	-0.14784911
230	0x3dd87eb4	0.10571042
231	0xbe9b4cc4	-0.30332005
232	0x3e025ee3	0.12731509
233	0xbedb332a	-0.42812473
234	0x3dd43f21	0.103636034
235	0xbb301208	-0.0026866216
236	0xbd130e08	-0.035902053
237	0x3e19c7a2	0.1501756
238	0x3e211ffc	0.15734857
239	0x3e3d7d84	0.18504912
240	0x3d9bf9bc	0.076159924
241	0x3cfde476	0.030992728
242	0xbe38a961	-0.18033363
243	0x3eeacc92	0.458592
244	0xbbcc137c	-0.0062279087
245	0xbd8b80c1	-0.06811667
246	0x3dec7843	0.115463756
247	0x3e8464a6	0.2585804
248	0x3e9df390	0.30849886
249	0x3e76c6d2	0.24099281
250	0x3d7923c5	0.060825128
251	0xbe4265a0	-0.1898408
252	0x3e15c349	0.14625277
253	0xbe14287a	-0.14468566
254	0xbe740cc1	-0.2383299
255	0xbd743657	-0.059622135

bias f4 [32]
0	0xbe4ad87f	-0.19809149
1	0xbd99a756	-0.0750262
2	0xbe03445e	-0.12819049
3	0x3b92ec30	0.004483722
4	0x3d3ec549	0.046574865
5	0xbd9c3ce3	-0.07628801
6	0xbdcf9210	-0.10135281
7	0x3e73f86e	0.23825237
8	0x3b9398cf	0.0045043
9	0x3e76ca25	0.2410055
10	0xbdc77074	-0.097382456
11	0xbe767da9	-0.24071373
12	0x3e604bad	0.21903868
13	0xbe162e7e	-0.14666173
14	0xbd9b9d77	-0.075983934
15	0x3c782136	0.015144637
16	0x3cfc8ede	0.030829843
17	0x3d4501ee	0.048097543
18	0x3d8a2f49	0.067473
19	0xbe55e1df	-0.20886944
20	0xbd41ab97	-0.04728278
21	0xbe47862d	-0.19484778
22	0xbc8159ac	-0.01578983
23	0x3d153e5a	0.036436416
24	0xbe414dd1	-0.18877341
25	0xbd2bd5b3	-0.041951846
26	0x3d624fbe	0.05525183
27	0xbc611ca6	-0.0137397405
28	0xbd4cfb5f	-0.050044414
29	0xbe72f5f9	-0.23726644
30	0xbe8a6894	-0.27032912
31	0xbe928356	-0.28615826

weight f4 [2, 32]
0	0xbdacbbf4	-0.08434287
1	0x3db59851	0.08866943
2	0xbec2308e	-0.3792767
3	0xbea870a5	-0.3289844
4	0x3d21b20a	0.039476432
5	0x3d230357	0.039798107
6	0xbddb90cc	-0.10720977
7	0x3e40543d	0.18782134
8	0xbe07b5d0	-0.1325295
9	0x3ec87712	0.39153343
10	0xbea32a5f	-0.31868264
11	0xbde73105	-0.112886466
12	0x3eae43ad	0.34036008
13	0xbe72e073	-0.23718433
14	0x3da3d82b	0.08000215
15	0x3db55e3b	0.08855864
16	0xbe19e169	-0.15027393
17	0xbe5a2ab6	-0.21305355
18	0x3b983ab5	0.0046456703
19	0xbc904dd9	-0.017615246
20	0x3e32e5ea	0.17470518
21	0xbe893fa1	-0.26806358
22	0x3e1eaf64	0.15496594
23	0xbea01113	-0.31263027
24	0xbed395bc	-0.41325176
25	0x3d84054c	0.06446323
26	0x3eb3bdd9	0.3510578
27	0x3ac6d5f3	0.0015169963
28	0xbeb4f70a	-0.35344726
29	0xbe55d1a5	-0.20880754
30	0xbe87cc52	-0.26523072
31	0xbea4b249	-0.3216727
32	0x3e9d0ce6	0.30673903
33	0xbd154b7d	-0.036448944
34	0x3ebdf5d9	0.3710163
35	0x3f0a6b7e	0.5407027
36	0x3e2fb2ba	0.17158023
37	0xbe308055	-0.17236455
38	0x3e229357	0.15876518
39	0xbddbd0d8	-0.10733193
40	0x3e804d07	0.25058767
41	0xbef42ceb	-0.4769052
42	0x3e9d5f93	0.3073698
43	0x3eb1c812	0.34722954
44	0xbecf7542	-0.40519148
45	0x3e182421	0.14857532
46	0x3e5c6c46	0.21525678
47	0xbd322f95	-0.04350241
48	0x3e0de9d7	0.13858734
49	0x3e7773e2	0.241653
50	0x3e04e5f0	0.12978339
51	0x3d60d3de	0.054889552
52	0x3d239c03	0.039943706
53	0x3eec04a1	0.46097282
54	0xbd864b21	-0.065572985
55	0x3e9d5c69	0.30734566
56	0x3dd02cbe	0.10164784
57	0xbda4c906	-0.08046155
58	0xbea67f51	-0.3251901
59	0xbe5fd027	-0.21856748
60	0x3ed61840	0.41815376
61	0x3e05921d	0.13044019
62	0x3e8139eb	0.252395
63	0x3eb96c8d	0.3621563

bias f4 [2]
0	0xbd2d46ee	-0.042303972
1	0xbde1bcc3	-0.110223316

weight f4 [32, 4]
0	0x3e81267a	0.25224668
1	0x3db62d41	0.0889535
2	0x3e7ee33a	0.24891368
3	0xbe41a003	-0.18908696
4	0xbede52ac	-0.4342245
5	0x3ed1afb2	0.40954357
6	0xbe4b80df	-0.19873379
7	0xbeab85c8	-0.33500504
8	0x3e6f7236	0.23383412
9	0xbd90e11d	-0.07074187
10	0xbec48855	-0.38385263
11	0xbbf28d32	-0.0074020857
12	0xbe874745	-0.26421562
13	0xbef6be36	-0.48191994
14	0x3e6f0e0a	0.23345199
15	0xbe9c5b49	-0.30538395
16	0x3e616b78	0.22013652
17	0xbdf0b5af	-0.117534034
18	0x3e5317d5	0.2061456
19	0xbd9bbdfe	-0.076045975
20	0x3ea03135	0.31287542
21	0x3eeac450	0.458529
22	0x3eabcec8	0.335562
23	0x3e7dd52c	0.2478835
24	0xbf8d16ea	-1.1022618
25	0xbeedbe94	-0.46434462
26	0xbb377707	-0.002799453
27	0xbd943c64	-0.07238081
28	0x3ec6bbdd	0.38815203
29	0xbddf3d9f	-0.10900425
30	0xbeabe4ee	-0.33573097
31	0xbecc8bc3	-0.3995038
32	0x3e199164	0.14996868
33	0x3d746f32	0.059676357
34	0xbf356283	-0.7085344
35	0xbe3515a4	-0.17684036
36	0x3f10adf0	0.5651541
37	0xbd16e77b	-0.03684185
38	0xbc9f973e	-0.019481298
39	0xbbf5c875	-0.007500703
40	0xbe94a065	-0.2902862
41	0xbe810a7d	-0.25203314
42	0xbeae43a7	-0.3403599
43	0x3ea32266	0.3186218
44	0x3e786359	0.24256648
45	0xbbc0bdad	-0.005881986
46	0xbf1c08e7	-0.60951084
47	0xbebbb864	-0.36664116
48	0xbe6667e6	-0.22500572
49	0x3cb930ec	0.022606336
50	0x3f5f534f	0.87236494
51	0x3dfe92ae	0.12430321
52	0xbea6cd77	-0.32578632
53	0xbe08b1f5	-0.13349135
54	0xbda5842a	-0.08081849
55	0xbe2d0075	-0.16894706
56	0x3e8af4fe	0.2714004
57	0x3d8488a7	0.06471377
58	0xbf593668	-0.8484864
59	0xbd9353c6	-0.07193713
60	0x3e02f5dc	0.127891
61	0x3d9d007a	0.076661065
62	0xbf02dabc	-0.5111501
63	0xbda53082	-0.08065893
64	0x3eea4a87	0.45759985
65	0xbdb5881d	-0.08863852
66	0x3e58805d	0.21142717
67	0x3e3b2dd7	0.18279205
68	0xbea8ccf1	-0.32968858
69	0x3e55d800	0.20883179
70	0x3f4ce5e8	0.8003831
71	0x3f0af340	0.5427742
72	0x3d4d1137	0.050065245
73	0x3e3b16ac	0.18270367
74	0xbe9f86c6	-0.3115751
75	0xbd423ba4	-0.04742016
76	0x3dcb355b	0.09922286
77	0x3e0160bc	0.12634557
78	0x3f3233ee	0.6961049
79	0x3e9eebc1	0.3103924
80	0xbea0e712	-0.31426293
81	0x3de94ddc	0.113918036
82	0x3ecb2eae	0.3968405
83	0x3eb8dc89	0.36105755
84	0x3e98785f	0.29779336
85	0xbe01fa4a	-0.12693134
86	0xbea2137f	-0.316555
87	0x3ec6b7eb	0.38812193
88	0xbe09badc	-0.13450187
89	0xbc2aeb15	-0.0104320245
90	0xbf72aae0	-0.94791985
91	0xbbf83eab	-0.00757583
92	0x3ddd9cb0	0.108209014
93	0x3da3656a	0.079783276
94	0xbd350a87	-0.044199493
95	0x3e00470e	0.12527105
96	0xbcbd6464	-0.023119159
97	0x3d4635a2	0.048390992
98	0x3eba90ec	0.36438692
99	0xbe600a63	-0.21878962
100	0xbe16ffed	-0.14746065
101	0x3e07c991	0.13260485
102	0x3f927688	1.1442423
103	0x3eba562b	0.36393866
104	0x3e8362a9	0.2566121
105	0xbd8577b1	-0.0651697
106	0xbee8d1fc	-0.45472705
107	0x3e364729	0.17800583
108	0x3d8e54d4	0.069497734
109	0x3e4a73fc	0.19770807
110	0x3e9afe8d	0.30272332
111	0x3eb44a97	0.35213158
112	0x3e906079	0.28198603
113	0xbdb4749f	-0.08811306
114	0xbb9ae333	-0.0047267913
115	0xbe9bdf71	-0.3044391
116	0xbe1c69e9	-0.15274777
117	0xbe0d07f3	-0.13772564
118	0x3dae64c5	0.08515314
119	0xbe1df262	-0.15424493
120	0xbf005ba5	-0.5013984
121	0x3de2c722	0.11073138
122	0x3dbabcc8	0.091180384
123	0x3e151fb0	0.14562869
124	0x3e945add	0.28975573
125	0xbe45ab16	-0.19303545
126	0x3d7d499f	0.06183779
127	0xbe91b24a	-0.28456336

bias f4 [32]
0	0x3e16996b	0.14706962
1	0xbdb59791	-0.088667996
2	0x3eb83515	0.35977998
3	0x3edc4363	0.43020162
4	0x3ef5f209	0.4803622
5	0x3d42040e	0.047367148
6	0x3ea8bcf1	0.3295665
7	0xbf0a5338	-0.5403323
8	0xbeabbdf6	-0.33543366
9	0xbdca5fc1	-0.09881545
10	0xbc8768b4	-0.016529419
11	0xbed60256	-0.41798657
12	0xbe787e66	-0.24266967
13	0xbe88fcb1	-0.26755288
14	0xbf159146	-0.58424795
15	0x3db9798c	0.09056386
16	0x3ea328e4	0.31867135
17	0x3e8cff37	0.27538463
18	0xbe8a0144	-0.2695409
19	0xbf078286	-0.5293354
20	0xbee8f2c2	-0.4549771
21	0xbd453498	-0.04814586
22	0x3ed4b285	0.4154245
23	0xbe8c0e35	-0.2735459
24	0xbe97b1d5	-0.29627863
25	0xbeabe0df	-0.3357
26	0xbdd1816b	-0.10229763
27	0xbf0e4421	-0.55572706
28	0xbf01144e	-0.5042161
29	0x3f0b126f	0.54325
30	0xbe76ed48	-0.24113953
31	0xbe18eaa4	-0.14933258

weight f4 [32, 32]
0	0xbdb4628b	-0.08807858
1	0xbdd62ca6	-0.10457735
2	0xbd8a4f86	-0.06753449
3	0x3d0ed1fb	0.03486822
4	0xbdee69db	-0.11641284
5	0x3c8cc40b	0.017183324
6	0xbe295a3a	-0.16538325
7	0xbe0e28d0	-0.13882756
8	0x3e420109	0.18945707
9	0x3c9ae35d	0.018907243
10	0x3e0fcd4f	0.14043163
11	0xbc7274ac	-0.014798325
12	0x3e00030c	0.12501162
13	0xbdeeb17b	-0.116549455
14	0xbc005c13	-0.007834452
15	0xbd16bc23	-0.036800515
16	0xbe002530	-0.12514186
17	0x3d171f34	0.036894992
18	0xbc853d51	-0.01626459
19	0x3c84f751	0.01623121
20	0xba2879a8	-0.00064268196
21	0xbe44bf43	-0.19213586
22	0xbd6bc0fa	-0.057557084
23	0xbde7b1c8	-0.11313206
24	0x3e1cecd9	0.15324725
25	0x3e0eaaec	0.13932389
26	0x3e274c43	0.16337685
27	0xbcae9ea9	-0.02131589
28	0x3d27f8a5	0.04100861
29	0xba98b739	-0.0011651284
30	0x3e7d8d44	0.2476092
31	0x3e2ff768	0.17184222
32	0xbcd1c033	-0.025604343
33	0xbd34bf64	-0.044127837
34	0xbdf4eb3c	-0.1195893
35	0xbdd632ca	-0.10458906
36	0x3e28dfb7	0.1649159
37	0x3e2a8213	0.16651182
38	0x3e8ee9cb	0.27912745
39	0x3dd8af2b	0.10580286
40	0x3c56e096	0.013115069
41	0x3cfcec4d	0.030874396
42	0x3d9857ad	0.07438598
43	0x3dd83e6d	0.10558782
44	0x3cf71085	0.030159244
45	0xbe13ef5f	-0.14446782
46	0x3df64635	0.1202511
47	0x3d86494b	0.06556948
48	0x3de93311	0.11386693
49	0x3e076ae4	0.1322437
50	0x3e0a635f	0.1351447
51	0xbe42209c	-0.18957752
52	0xbe10498f	-0.1409056
53	0x3d84bd52	0.064814225
54	0x3a391cd6	0.0007061487
55	0xbe3d33db	-0.18476813
56	0x3e1e7ada	0.15476552
57	0xbd73c209	-0.05951122
58	0x3dfbb457	0.122902565
59	0xbe22e224	-0.15906578
60	0x3ceddf3f	0.029037116
61	0xbd10de9d	-0.03536855
62	0xbe09a36d	-0.13441248
63	0xbd8770c8	-0.06613308
64	0xbca647e7	-0.020297958
65	0x3da5b54d	0.08091221
66	0x3bea57f6	0.007151599
67	0x3e08652b	0.13319843
68	0x3db1b80a	0.08677681
69	0x3b766d48	0.0037601758
70	0xbc1c14a5	-0.009526406
71	0xbe587e98	-0.21142042
72	0xbe00bbb2	-0.125716
73	0xbc321918	-0.010870241
74	0xbd8a5f2b	-0.06756433
75	0xbd45ad10	-0.04826075
76	0xbd45ae1a	-0.04826174
77	0xbe193767	-0.1496254
78	0x3da3be11	0.07995237
79	0x3de01efd	0.109434105
80	0x3d27a1ba	0.04092572
81	0xbc4f7649	-0.012662479
82	0x3d4b62c8	0.049654752
83	0x3ded5c69	0.115898915
84	0xbe5b58be	-0.21420571
85	0xbcb61c4e	-0.022230294
86	0x3c7d0f07	0.015445477
87	0xbdd14bde	-0.10219549
88	0x3dc29054	0.09500185
89	0xbd92ccb1	-0.07167948
90	0x3e10d8fa	0.1414527
91	0xbd185941	-0.037194494
92	0xbd70fd85	-0.058835525
93	0xbd84a29e	-0.06476329
94	0xbe10b7bb	-0.14132588
95	0x3c6d1dfe	0.014472483
96	0x3dbff2c6	0.09372477
97	0xbe83f89b	-0.25775608
98	0x3e4eb605	0.20186622
99	0xbd07875f	-0.033088084
100	0x3dece411	0.11566938
101	0xbd0c66ac	-0.034277603
102	0x3e90462e	0.28178543
103	0x3df36fea	0.1188658
104	0xbd169c42	-0.036770113
105	0xbdb16090	-0.08660996
106	0xbd02a607	-0.031896617
107	0x3d0a06de	0.033697955
108	0xbddc85fb	-0.10767742
109	0x3cbbf3a2	0.022943322
110	0x3e15e098	0.14636457
111	0x3d077736	0.033072673
112	0x3c842cf5	0.016134718
113	0x3d1a31a0	0.037644982
114	0xbe41ec7a	-0.18937865
115	0xbe4f5930	-0.20248866
116	0xbe416816	-0.18887362
117	0xbd85711d	-0.06515715
118	0x3d98f358	0.07468289
119	0xbc73e406	-0.014885908
120	0xbe03a610	-0.12856317
121	0xbe6f39c6	-0.23361883
122	0x3e13b5b7	0.14424787
123	0xbe22cac1	-0.15897657
124	0xbd5cd813	-0.053917002
125	0xbdd8bb25	-0.1058257
126	0xbe1d9d0c	-0.1539194
127	0x3dfff1c9	0.12497289
128	0xbe51cdf3	-0.2048872
129	0xbe38c176	-0.1804255
130	0x3dbca840	0.09211779
131	0xbdcac596	-0.09900968
132	0xbdeaf238	-0.11471981
133	0xbe294196	-0.16528925
134	0x3cce8b5e	0.02521294
135	0xbd01e162	-0.031709082
136	0x3e08be07	0.1335374
137	0xbd86cbef	-0.06581866
138	0x3d0fd7d7	0.03511795
139	0x3dd7a903	0.10530283
140	0xbdcd15c5	-0.10013918
141	0x3e12fe61	0.1435485
142	0x3e0a4d9f	0.13506173
143	0xbd0d23e8	-0.03445807
144	0xbe6101d2	-0.2197335
145	0xbcd11762	-0.025523845
146	0x3e5d96b2	0.21639517
147	0x3cdfc335	0.027314762
148	0x3e040b32	0.12894896
149	0x3de37108	0.111055434
150	0xbdfa364d	-0.12217388
151	0x3d4acf64	0.04951419
152	0x3e6756b2	0.22591665
153	0x3d3e3ddb	0.04644571
154	0xbda57a9b	-0.08080026
155	0x3d2d52f3	0.042315435
156	0x3e1bf39f	0.15229653
157	0xbde87e97	-0.1135227
158	0xbcc89a85	-0.024487743
159	0x3e8aca84	0.27107632
160	0x3e095485	0.13411148
161	0xbd1cec50	-0.038311303
162	0x3d356019	0.0442811
163	0xbc2bd62f	-0.010488077
164	0x3da62b80	0.08113766
165	0x3c6d36d5	0.014478405
166	0x3c3d08ca	0.01153774
167	0xbb3fa322	-0.0029241522
168	0xbd43696c	-0.04770796
169	0x3e0d2bcf	0.13786243
170	0xbdce532c	-0.100744575
171	0x3b92a689	0.004475419
172	0xbe33938a	-0.1753675
173	0x3b935c0f	0.004497058
174	0x3d7d543a	0.061847903
175	0xbc129682	-0.008947017
176	0xbd96cb5d	-0.07363007
177	0x3d156a19	0.036478136
178	0xbd451fb1	-0.048125926
179	0xbe3fe6a1	-0.18740322
180	0xbe2f6a7e	-0.17130467
181	0x3e2b13c9	0.16706766
182	0x3e254592	0.1613982
183	0x3d7eb760	0.0621866
184	0x3da192f4	0.07889357
185	0x3cd6bbff	0.02621269
186	0x3db5d7e7	0.08879071
187	0x3da75b94	0.08171764
188	0xbd95e169	-0.07318384
189	0x3c5596b3	0.013036418
190	0x3d6e1bbf	0.05813193
191	0xbc7d9503	-0.015477422
192	0xbe1490a3	-0.145083
193	0xbda08a53	-0.07838883
194	0x3d9e149a	0.07718773
195	0x3dfb8ac6	0.12282328
196	0x3dd80fd5	0.10549895
197	0x3dcc63d5	0.09979979
198	0xbd113cea	-0.035458483
199	0xbe1fae27	-0.15593778
200	0xbdeb6568	-0.11493951
201	0xbe708c71	-0.23491074
202	0x3e243463	0.16035609
203	0x3c7d13e4	0.015446637
204	0xbd7fd458	-0.062458366
205	0x3da773e3	0.081764005
206	0xbd4b6edb	-0.049666267
207	0xbde879bc	-0.11351344
208	0x3d458c93	0.048229765
209	0x3d143876	0.036186658
210	0xbdbdd99b	-0.092700206
211	0xbdc7fb18	-0.09764689
212	0x3ded779d	0.1159508
213	0x3de682da	0.11255427
214	0x3b88a180	0.004169643
215	0xbd912d41	-0.070887096
216	0x3dd60832	0.10450782
217	0x3d6639bc	0.056207404
218	0xbe227fd3	-0.15869074
219	0xbdbd03f9	-0.09229273
220	0x3d49b65f	0.04924619
221	0x3db7185c	0.08940193
222	0xbc957715	-0.01824526
223	0x3d011b48	0.031520158
224	0xbe25400a	-0.1613771
225	0x3dff9108	0.124788344
226	0x3db34cd6	0.0875489
227	0x3d062eb9	0.032759402
228	0x3d26a2d6	0.040682636
229	0x3c09ed6b	0.008418421
230	0xbe46c26d	-0.19410105
231	0x3d2f91fd	0.042863835
232	0x3dce02f0	0.10059154
233	0xbe3b4ea3	-0.18291716
234	0x3e6d5008	0.23175061
235	0xbcb6eb07	-0.022328867
236	0xbdf8b9ca	-0.121448115
237	0xbd02dc37	-0.031948294
238	0xbdf769ab	-0.120807014
239	0x3e01cd44	0.12675959
240	0xbe07401d	-0.13208051
241	0xbe3406de	-0.17580745
242	0x3cec5829	0.028850632
243	0xbd9f9b10	-0.07793248
244	0xbd366360	-0.044528365
245	0x3dea47c2	0.11439468
246	0xbe2ab8d7	-0.16672073
247	0x3e01f838	0.12692344
248	0x3e207216	0.1566852
249	0x3d3af061	0.0456394
250	0x3dea5fe4	0.11444071
251	0xbd74bfd3	-0.05975325
252	0x3e35a674	0.17739278
253	0x3e058862	0.13040307
254	0x3de8df5a	0.11370726
255	0x3e4bba42	0.1989527

bias f4 [32]
0	0xbcb2596b	-0.021771153
1	0x3d6fb3ab	0.058520954
2	0xbd84f8db	-0.06492778
3	0x3e30194f	0.17197154
4	0x3d2e2885	0.04251911
5	0xbdcc589f	-0.09977841
6	0xbe43183f	-0.19052218
7	0xbdb16a9f	-0.086629145
8	0x3e2c551b	0.1682934
9	0xbd1f073c	-0.03882526
10	0x3e006f6c	0.12542504
11	0xbd3e15a2	-0.04640735
12	0xbe562999	-0.20914306
13	0x3e03b419	0.1286167
14	0xbd756f10	-0.05992037
15	0x3ca40e3a	0.020026315
16	0xbdcba02b	-0.09942659
17	0xbd830ba4	-0.06398705
18	0xbdf64e66	-0.12026672
19	0xbe526670	-0.2054689
20	0x3e107993	0.14108877
21	0xbd8a63a6	-0.06757288
22	0xbe1f73a7	-0.15571462
23	0x3d4a315d	0.049363483
24	0xbe592e39	-0.21209039
25	0x3bbd9129	0.0057851267
26	0x3e0427e8	0.12905848
27	0x3e006086	0.12536821
28	0xbdd1f0e6	-0.10251026
29	0xbd8f1c88	-0.06987864
30	0x3e215b66	0.15757522
31	0x3e588e28	0.21147978

weight f4 [1, 32]
0	0xbe28b716	-0.16476092
1	0x3e05de5d	0.13073106
2	0x3d6e495d	0.058175433
3	0x3e2da1f4	0.16956311
4	0xbe3c10bf	-0.18365763
5	0x3df60d80	0.12014294
6	0xbd9e5727	-0.07731467
7	0xbe008281	-0.12549783
8	0x3dae4d39	0.08510823
9	0x3e54152d	0.20711203
10	0xbdbf02a4	-0.093266755
11	0x3e1f230e	0.15540716
12	0xbd9fc14a	-0.07800539
13	0x3de74d5b	0.11294051
14	0x3e2efa1b	0.17087595
15	0xbcd22fb1	-0.025657507
16	0xbdef987f	-0.11699008
17	0xbdfab242	-0.12241031
18	0xbb7bfcd3	-0.0038450256
19	0xbe50fc33	-0.20408706
20	0x3df28ba3	0.1184304
21	0xbe16c662	-0.14724115
22	0xbdc49f59	-0.09600706
23	0x3e00f468	0.12593234
24	0xbe3e63d9	-0.18592776
25	0xbe3611c8	-0.1778022
26	0x3e0e5d72	0.13902834
27	0xbe22dbdd	-0.15904184
28	0x3dcc22ef	0.099676006
29	0xbe465272	-0.19367388
30	0x3d8f58a7	0.06999331
31	0x3dcacdb3	0.09902515
